…
compile_batch_size: 256
compile_max_segs: 7
compile_skills: 5
compile_beta_z: 0.1
compile_beta_b: 0.1
compile_prior_rate: 3.0
compile_latent: gaussian
compile_state_size: 1087
compile_action_size: 16
envs: ['makebedfull-v0']
test_envs: []
max_steps: 64
width: 10
height: 10
arch: omstack
eval_episodes: 30
hidden_size: 64
nb_slots: 3
env_arch: noenv
debug: True
mode: IL
experiment: full_ompn_original
cuda: True
procs: 4

CUDA Available: True
Number of GPUs: 1

GPU 0:
  Name: NVIDIA GeForce RTX 3080
  Capability: (8, 6)
  Memory Allocated: 0.00 MB
  Memory Reserved: 0.00 MB
Start IL...
Model: OMStackBot(
  (inp_enc): Linear(in_features=1075, out_features=64, bias=True)
  (layernorm): LayerNorm((64,), eps=1e-05, elementwise_affine=False)
  (distribution): Distribution(
    (mlp): Sequential(
      (0): Dropout(p=0, inplace=False)
      (1): Linear(in_features=256, out_features=64, bias=True)
      (2): LeakyReLU(negative_slope=0.01)
      (3): Dropout(p=0, inplace=False)
      (4): Linear(in_features=64, out_features=1, bias=True)
    )
  )
  (actor): Sequential(
    (0): Linear(in_features=192, out_features=6, bias=True)
  )
  (critic): Sequential(
    (0): Linear(in_features=192, out_features=1, bias=True)
  )
  (memory_encoder): NoEnvEmbedding()
  (com_cell): ModuleList(
    (0): ComCell(
      (input_t): Sequential(
        (0): Dropout(p=0, inplace=False)
        (1): Linear(in_features=256, out_features=256, bias=True)
        (2): ReLU()
        (3): Dropout(p=0, inplace=False)
        (4): Linear(in_features=256, out_features=256, bias=True)
      )
      (gates): Sequential(
        (0): LayerNorm((192,), eps=1e-05, elementwise_affine=True)
        (1): Sigmoid()
      )
      (activation): LayerNorm((64,), eps=1e-05, elementwise_affine=False)
      (drop): Dropout(p=0, inplace=False)
    )
    (1): ComCell(
      (input_t): Sequential(
        (0): Dropout(p=0, inplace=False)
        (1): Linear(in_features=256, out_features=256, bias=True)
        (2): ReLU()
        (3): Dropout(p=0, inplace=False)
        (4): Linear(in_features=256, out_features=256, bias=True)
      )
      (gates): Sequential(
        (0): LayerNorm((192,), eps=1e-05, elementwise_affine=True)
        (1): Sigmoid()
      )
      (activation): LayerNorm((64,), eps=1e-05, elementwise_affine=False)
      (drop): Dropout(p=0, inplace=False)
    )
    (2): ComCell(
      (input_t): Sequential(
        (0): Dropout(p=0, inplace=False)
        (1): Linear(in_features=256, out_features=256, bias=True)
        (2): ReLU()
        (3): Dropout(p=0, inplace=False)
        (4): Linear(in_features=256, out_features=256, bias=True)
      )
      (gates): Sequential(
        (0): LayerNorm((192,), eps=1e-05, elementwise_affine=True)
        (1): Sigmoid()
      )
      (activation): LayerNorm((64,), eps=1e-05, elementwise_affine=False)
      (drop): Dropout(p=0, inplace=False)
    )
  )
  (decom_cell): ModuleList(
    (0): DecomCell(
      (input_t): Sequential(
        (0): Dropout(p=0, inplace=False)
        (1): Linear(in_features=192, out_features=256, bias=True)
        (2): ReLU()
        (3): Dropout(p=0, inplace=False)
        (4): Linear(in_features=256, out_features=192, bias=True)
      )
      (gates): Sequential(
        (0): LayerNorm((128,), eps=1e-05, elementwise_affine=True)
        (1): Sigmoid()
      )
      (drop): Dropout(p=0, inplace=False)
      (activation): LayerNorm((64,), eps=1e-05, elementwise_affine=False)
    )
    (1): DecomCell(
      (input_t): Sequential(
        (0): Dropout(p=0, inplace=False)
        (1): Linear(in_features=192, out_features=256, bias=True)
        (2): ReLU()
        (3): Dropout(p=0, inplace=False)
        (4): Linear(in_features=256, out_features=192, bias=True)
      )
      (gates): Sequential(
        (0): LayerNorm((128,), eps=1e-05, elementwise_affine=True)
        (1): Sigmoid()
      )
      (drop): Dropout(p=0, inplace=False)
      (activation): LayerNorm((64,), eps=1e-05, elementwise_affine=False)
    )
    (2): DecomCell(
      (input_t): Sequential(
        (0): Dropout(p=0, inplace=False)
        (1): Linear(in_features=192, out_features=256, bias=True)
        (2): ReLU()
        (3): Dropout(p=0, inplace=False)
        (4): Linear(in_features=256, out_features=192, bias=True)
      )
      (gates): Sequential(
        (0): LayerNorm((128,), eps=1e-05, elementwise_affine=True)
        (1): Sigmoid()
      )
      (drop): Dropout(p=0, inplace=False)
      (activation): LayerNorm((64,), eps=1e-05, elementwise_affine=False)
    )
  )
)
I0611 14:41:29.146294 140064807613824 dataloader.py:49] makebedfull-v0: Train: 475 Val: 25
Dataloader: <gym_psketch.dataloader.Dataloader object at 0x7f62eee39860>
Start training
[TRAIN] steps=20	grad_norm: 1.1831	acc: 0.2960	ce_loss: 1.8885	fps: 30649.2129
[TRAIN] steps=40	grad_norm: 1.1131	acc: 0.4240	ce_loss: 1.6332	fps: 35679.3672
[TRAIN] steps=60	grad_norm: 2.0396	acc: 0.4883	ce_loss: 1.4934	fps: 35019.9180
…
