environment ['boundary', 'water', 'stone']
workshop ['toolshed', 'workbench', 'factory']
primitive ['iron', 'grass', 'wood', 'gold', 'gem']
grabbale: ['iron', 'grass', 'wood', 'gold', 'gem', 'plank', 'stick', 'axe', 'rope', 'bed', 'shears', 'cloth', 'bridge', 'ladder']
nongrabbale: ['boundary', 'water', 'stone', 'toolshed', 'workbench', 'factory']
CUDA Available: True
Number of GPUs: 1

GPU 0:
  Name: NVIDIA GeForce RTX 3050
  Capability: (8, 6)
  Memory Allocated: 0.00 MB
  Memory Reserved: 0.00 MB
Start IL...
Model: OMStackBot(
  (inp_enc): Linear(in_features=1075, out_features=128, bias=True)
  (layernorm): LayerNorm((128,), eps=1e-05, elementwise_affine=False)
  (distribution): Distribution(
    (mlp): Sequential(
      (0): Dropout(p=0, inplace=False)
      (1): Linear(in_features=512, out_features=128, bias=True)
      (2): LeakyReLU(negative_slope=0.01)
      (3): Dropout(p=0, inplace=False)
      (4): Linear(in_features=128, out_features=1, bias=True)
    )
  )
  (actor): Sequential(
    (0): Linear(in_features=384, out_features=17, bias=True)
  )
  (critic): Sequential(
    (0): Linear(in_features=384, out_features=1, bias=True)
  )
  (memory_encoder): NoEnvEmbedding()
  (com_cell): ModuleList(
    (0): ComCell(
      (input_t): Sequential(
        (0): Dropout(p=0, inplace=False)
        (1): Linear(in_features=512, out_features=512, bias=True)
        (2): ReLU()
        (3): Dropout(p=0, inplace=False)
        (4): Linear(in_features=512, out_features=512, bias=True)
      )
      (gates): Sequential(
        (0): LayerNorm((384,), eps=1e-05, elementwise_affine=True)
        (1): Sigmoid()
      )
      (activation): LayerNorm((128,), eps=1e-05, elementwise_affine=False)
      (drop): Dropout(p=0, inplace=False)
    )
    (1): ComCell(
      (input_t): Sequential(
        (0): Dropout(p=0, inplace=False)
        (1): Linear(in_features=512, out_features=512, bias=True)
        (2): ReLU()
        (3): Dropout(p=0, inplace=False)
        (4): Linear(in_features=512, out_features=512, bias=True)
      )
      (gates): Sequential(
        (0): LayerNorm((384,), eps=1e-05, elementwise_affine=True)
        (1): Sigmoid()
      )
      (activation): LayerNorm((128,), eps=1e-05, elementwise_affine=False)
      (drop): Dropout(p=0, inplace=False)
    )
    (2): ComCell(
      (input_t): Sequential(
        (0): Dropout(p=0, inplace=False)
        (1): Linear(in_features=512, out_features=512, bias=True)
        (2): ReLU()
        (3): Dropout(p=0, inplace=False)
        (4): Linear(in_features=512, out_features=512, bias=True)
      )
      (gates): Sequential(
        (0): LayerNorm((384,), eps=1e-05, elementwise_affine=True)
        (1): Sigmoid()
      )
      (activation): LayerNorm((128,), eps=1e-05, elementwise_affine=False)
      (drop): Dropout(p=0, inplace=False)
    )
  )
  (decom_cell): ModuleList(
    (0): DecomCell(
      (input_t): Sequential(
        (0): Dropout(p=0, inplace=False)
        (1): Linear(in_features=384, out_features=512, bias=True)
        (2): ReLU()
        (3): Dropout(p=0, inplace=False)
        (4): Linear(in_features=512, out_features=384, bias=True)
      )
      (gates): Sequential(
        (0): LayerNorm((256,), eps=1e-05, elementwise_affine=True)
        (1): Sigmoid()
      )
      (drop): Dropout(p=0, inplace=False)
      (activation): LayerNorm((128,), eps=1e-05, elementwise_affine=False)
    )
    (1): DecomCell(
      (input_t): Sequential(
        (0): Dropout(p=0, inplace=False)
        (1): Linear(in_features=384, out_features=512, bias=True)
        (2): ReLU()
        (3): Dropout(p=0, inplace=False)
        (4): Linear(in_features=512, out_features=384, bias=True)
      )
      (gates): Sequential(
        (0): LayerNorm((256,), eps=1e-05, elementwise_affine=True)
        (1): Sigmoid()
      )
      (drop): Dropout(p=0, inplace=False)
      (activation): LayerNorm((128,), eps=1e-05, elementwise_affine=False)
    )
    (2): DecomCell(
      (input_t): Sequential(
        (0): Dropout(p=0, inplace=False)
        (1): Linear(in_features=384, out_features=512, bias=True)
        (2): ReLU()
        (3): Dropout(p=0, inplace=False)
        (4): Linear(in_features=512, out_features=384, bias=True)
      )
      (gates): Sequential(
        (0): LayerNorm((256,), eps=1e-05, elementwise_affine=True)
        (1): Sigmoid()
      )
      (drop): Dropout(p=0, inplace=False)
      (activation): LayerNorm((128,), eps=1e-05, elementwise_affine=False)
    )
  )
)
Dataloader: <gym_psketch.dataloader.Dataloader object at 0x7f817c6450f0>
Start training
[TRAIN] steps=20	grad_norm: 2.3716	acc: 0.2750	ce_loss: 2.1202	fps: 14751.6973
[TRAIN] steps=40	grad_norm: 1.1521	acc: 0.4206	ce_loss: 1.6173	fps: 11827.8057
[TRAIN] steps=60	grad_norm: 1.6193	acc: 0.5073	ce_loss: 1.4236	fps: 13740.8564
[TRAIN] steps=80	grad_norm: 2.2583	acc: 0.5753	ce_loss: 1.2734	fps: 12692.0098
…
