…
compile_skills: 5
compile_beta_z: 0.1
compile_beta_b: 0.1
compile_prior_rate: 3.0
compile_latent: gaussian
compile_state_size: 1087
compile_action_size: 16
envs: ['wsws_static_symbolic']
test_envs: []
max_steps: 64
width: 10
height: 10
arch: omstack
eval_episodes: 30
hidden_size: 256
nb_slots: 1
env_arch: noenv
debug: False
mode: IL
experiment: OMPN_TEST_1000_wsws_static_symbolic_3
cuda: True
procs: 4

CUDA Available: True
Number of GPUs: 1

GPU 0:
  Name: NVIDIA GeForce RTX 3080
  Capability: (8, 6)
  Memory Allocated: 0.00 MB
  Memory Reserved: 0.00 MB
Start IL...
Model: OMStackBot(
  (inp_enc): Linear(in_features=1087, out_features=256, bias=True)
  (layernorm): LayerNorm((256,), eps=1e-05, elementwise_affine=False)
  (distribution): Distribution(
    (mlp): Sequential(
      (0): Dropout(p=0, inplace=False)
      (1): Linear(in_features=1024, out_features=256, bias=True)
      (2): LeakyReLU(negative_slope=0.01)
      (3): Dropout(p=0, inplace=False)
      (4): Linear(in_features=256, out_features=1, bias=True)
    )
  )
  (actor): Sequential(
    (0): Linear(in_features=768, out_features=16, bias=True)
  )
  (critic): Sequential(
    (0): Linear(in_features=768, out_features=1, bias=True)
  )
  (memory_encoder): NoEnvEmbedding()
  (com_cell): ModuleList(
    (0): ComCell(
      (input_t): Sequential(
        (0): Dropout(p=0, inplace=False)
        (1): Linear(in_features=1024, out_features=1024, bias=True)
        (2): ReLU()
        (3): Dropout(p=0, inplace=False)
        (4): Linear(in_features=1024, out_features=1024, bias=True)
      )
      (gates): Sequential(
        (0): LayerNorm((768,), eps=1e-05, elementwise_affine=True)
        (1): Sigmoid()
      )
      (activation): LayerNorm((256,), eps=1e-05, elementwise_affine=False)
      (drop): Dropout(p=0, inplace=False)
    )
  )
  (decom_cell): ModuleList(
    (0): DecomCell(
      (input_t): Sequential(
        (0): Dropout(p=0, inplace=False)
        (1): Linear(in_features=768, out_features=1024, bias=True)
        (2): ReLU()
        (3): Dropout(p=0, inplace=False)
        (4): Linear(in_features=1024, out_features=768, bias=True)
      )
      (gates): Sequential(
        (0): LayerNorm((512,), eps=1e-05, elementwise_affine=True)
        (1): Sigmoid()
      )
      (drop): Dropout(p=0, inplace=False)
      (activation): LayerNorm((256,), eps=1e-05, elementwise_affine=False)
    )
  )
)
Dataloader: <gym_psketch.dataloader.Dataloader object at 0x7fa9ba8d3c18>
Start training
[TRAIN] steps=20	grad_norm: 1.6956	acc: 0.3333	ce_loss: 1.7562	fps: 16499.5469
[TRAIN] steps=40	grad_norm: 2.8258	acc: 0.5249	ce_loss: 1.1894	fps: 16890.6973
[TRAIN] steps=60	grad_norm: 3.4744	acc: 0.6610	ce_loss: 0.8915	fps: 17059.3711
[TRAIN] steps=80	grad_norm: 3.4990	acc: 0.7905	ce_loss: 0.5946	fps: 17148.1191
…
